model_checkpoint.pth (torch, 23135 bytes, 3 tensors)

layer_1.weight f4 [128, 20]
00000000: 3abe 293e 213e 1f3e 26ff f6bd e098 643e
00000010: a0b8 d7bd 2dad 2dbd 7963 09be b3e5 0a3e
00000020: 1fa7 2b3e 39ba 48be 9efb 333e 2b2a 513d
00000030: 1aa5 343e 24c6 023d 0339 973d 1e52 bcbd
00000040: b417 c23d 7cfd f73c 8923 0fbe d93b 703d
00000050: eef8 e0bd f039 1bbd 5048 6abe 4726 0a3e
00000060: b1f0 bcbe d572 b8be dc18 94bd 630d 55bd
00000070: db75 413b 703c 82be 046b 2b3e fc66 32be
00000080: 8f2a 463e 41b9 803d 6104 e1bd 37b1 54bd
00000090: f491 74be 9461 7f3e be0c 85bd bded 8fbd
000000a0: 3d81 a53c 23a2 da3e 5a01 c13f 3058 783c
000000b0: ff4b d53f 0106 9c3f 5888 4b3e 0dff ccbd
000000c0: ddbe a93e 5165 4abe cb30 bfbe a0cc 74be
000000d0: 2bb1 a2be 7492 b93e 3bf3 383d 5a23 f83f
000000e0: ef92 0040 b68c 213f 7247 603f daab 9cbe
000000f0: 54ea 9c3c 49b1 63be 0135 50bd 1d13 b0bd
00000100: 494d 14be bb86 43be c1f1 3e3e ba7c e4bd
00000110: 5dce 19be 97b8 24be a230 513e 04fa 023e
00000120: 0775 6c3e c807 02be a7d2 77be df7e a5be
00000130: 497e 89be 05b0 903d 55f9 9fbc 3926 293e
00000140: 3b77 6dbd e64d 4cbc 4dca df3e 733e b5bd
00000150: d700 073f 53fe 5f3e 7ec4 183e 171b 31be
00000160: 84dd 0dbe 7435 583d b9e1 863d 8976 8bbd
00000170: d114 243e afe9 233e 63d4 15be 7399 843e
00000180: daec 253f fc3a e23c 1b92 003e 8f5d 45be
00000190: cb69 6fbe e744 66be 42e6 2fbf 4bae b4bd
000001a0: b037 54bf 4ad5 5bbf 9fe1 c6be 9bac 66bd
000001b0: 7696 8cbe 1c99 6abe 8795 cd3e 3a24 243e
000001c0: d066 2b3e bb7c 95be bd6a 8dbe 2fe3 69bf
000001d0: d042 4bbf 0080 b6be 429d 14bf 013d b0bd
000001e0: f785 40bd 5d4e e2be 24b4 24bf c52a a4bd
000001f0: 9201 6ebf a1cb 4bbf 9467 83bd 636b 0abe
00000200: 4352 503e ffb5 a0bd 5d9d 313e 643c 393e
00000210: 0bc6 a4be 21d8 8b3e f509 c2bd 9342 7fbf
00000220: dee3 86bf 74a6 dbbe fcc8 64be 2af7 133d
00000230: 6d60 813d 7234 f8bd 6671 883e f0d1 d2bd
00000240: 4096 db3d a65b 2c3e 6f13 1c3e cb79 1b3e
00000250: 0a60 693e 3dbf 56be 54ce eb3c a19a dbbd
00000260: a251 b5bc 1b2c 1bbe e4c0 593e 03cb 1c3d
00000270: dfde 963e 4534 c33d fdfc 1d3e 33b6 c7bd
00000280: 6591 4f3e a1d9 283d 7ea9 143b 3848 43be
00000290: 7936 863d 090a 5ebd a9c7 cabd 8e72 503e
000002a0: 7e0d 753d c7df f5bd 6357 efbd 2e52 30bc
000002b0: c6d6 ee3d bd5a 39bd ea3d eabd e823 c3bd
000002c0: 9ce5 4cbe 0446 8f3d 4320 223e 4b05 50be
000002d0: 0227 6e3d 06d4 b43e e0cd a43e 4ce2 04bd
000002e0: e6d5 093f 9c3b 003f eb77 043d 9d74 cebc
000002f0: 4747 e7bd 9bc7 503e d9f4 dabd 64e4 3cbe
00000300: 31db a73e 3ff0 783e 0f97 09be aa4d 8d3e
00000310: 5a86 c73e ceef f5bb fb56 943e d369 a43d
00000320: e429 10be 44fb 263d bf8a 2a3f d35b 073d
00000330: 150b 1f3f f34b ba3e 617a 0ebe a888 7ebe
00000340: 41af 90bd fdd1 243e 0dc8 723e b254 4e3e
00000350: 9640 90be 12fd 7dbe ce38 50bd 418f 5f3f
00000360: 2380 433f 162d 1e3d f4e5 923e 9b8b bdbd
00000370: d929 29be 33ea a43d 5080 eabe 9099 8abd
00000380: 825f 2ebf ca9b 5bbe 01be 6c3e 2600 093e
00000390: 020a 40be 7cb9 8fbe b7f0 8dbe 1009 993e
000003a0: 2814 133e 071d 903e 2c5e 563d adf3 bcbe
000003b0: 8735 06bf 86c0 86be 1c4a bfbe 2d38 86be
000003c0: 1a56 c83d 7a41 10be dd9c 1abe 1f0e 2abe
000003d0: 4e10 bebe 9bfc c3be 5632 d0bd a3a8 c03d
000003e0: 9449 2fbd de83 363e 08c7 37bd 0d5f 2dbe
000003f0: 24b6 2f3d 149a c0bd da0c 48bd 4258 02bf
0.16576472 0.15551044 -0.120603845 0.22323942 -0.10533261 -0.04240148 -0.13416852 0.13564186
0.1676297 -0.19602288 0.17576453 0.051065605 0.17641106 0.031927243 0.07383921 -0.0919535
0.09477177 0.030272238 -0.139784 0.058650825 -0.109849796 -0.03789705 -0.22879148 0.13491164
-0.36902383 -0.3602511 -0.07231304 -0.05201472 0.002951971 -0.25436735 0.16740042 -0.17422098
0.19352172 0.062853344 -0.10987163 -0.051926818 -0.23883802 0.24939567 -0.06496571 -0.07027767
0.020203227 0.42701825 1.5078537 0.015157744 1.6663817 1.2189332 0.1987623 -0.100095846
0.3315343 -0.19765212 -0.37341914 -0.23906183 -0.31775793 0.36244547 0.045153838 1.9385788
2.008968 0.6310533 0.87609017 -0.30599862 0.019154705 -0.22235598 -0.0508318 -0.085973956
-0.14482607 -0.19094364 0.1864691 -0.11156602 -0.15020128 -0.1608604 0.20428708 0.12790686
0.23091517 -0.12698281 -0.24201451 -0.32323357 -0.2685416 0.07064823 -0.01952807 0.16518487
-0.057975035 -0.012469744 0.4370903 -0.08849802 0.52735656 0.2187436 0.14918706 -0.1729549
-0.13854033 0.052785352 0.06586022 -0.06809718 0.16023566 0.16007112 -0.146318 0.25898322
0.6481453 0.027616017 0.12555735 -0.19273971 -0.233802 -0.22487222 -0.6871072 -0.08822306
-0.8289747 -0.8587233 -0.3884401 -0.056316953 -0.27458543 -0.22909969 0.40153143 0.16029444
0.16738439 -0.29196724 -0.27620497 -0.9136228 -0.7939882 -0.3564453 -0.58052456 -0.086053856
-0.04700276 -0.4420041 -0.6433737 -0.0801597 -0.92971146 -0.7960759 -0.0641624 -0.13517527
0.2034388 -0.07847213 0.17345186 0.18089443 -0.32182345 0.2731333 -0.094745554 -0.9971096
-1.053829 -0.4290043 -0.22342294 0.036124386 0.0631722 -0.12119378 0.26649016 -0.10293949
0.10722017 0.16831836 0.15241788 0.15183179 0.22790542 -0.20971389 0.028784908 -0.107228525
-0.022133652 -0.15153544 0.21264988 0.038279545 0.29466912 0.09531454 0.15428539 -0.097515486
0.20270307 0.041223172 0.0022684033 -0.19070518 0.065533586 -0.05420879 -0.099013634 0.20356199
0.05982732 -0.12005573 -0.116865896 -0.010761781 0.116620585 -0.04525255 -0.114375904 -0.09528333
-0.20009464 0.06995776 0.1583262 -0.20314519 0.05814267 0.3531801 0.3218832 -0.032442376
0.5384201 0.50090957 0.032340925 -0.02520209 -0.11292892 0.20388643 -0.10691232 -0.18446499
0.32784417 0.24310397 -0.1343653 0.27598315 0.3896969 -0.0075053936 0.2897261 0.08027997
-0.1407848 0.04076697 0.6661796 0.033046555 0.62126285 0.3638607 -0.13913871 -0.24856818
-0.07064677 0.16095729 0.23709126 0.20149496 -0.28174275 -0.2480357 -0.050835423 0.87327963
0.76367396 0.038617216 0.28691065 -0.09255143 -0.1651987 0.080524825 -0.4580102 -0.06767571
-0.68114483 -0.21446148 0.23119356 0.13378963 -0.18753818 -0.280712 -0.27722713 0.29889727
0.14363158 0.28147146 0.052335903 -0.3690466 -0.52425426 -0.2631876 -0.37361228 -0.26214734
0.097820476 -0.14087477 -0.15098901 -0.1660695 -0.37121814 -0.3827866 -0.10165851 0.09407165
-0.04279478 0.17823741 -0.044867545 -0.1693079 0.042898312 -0.09404388 -0.04884038 -0.5091592

layer_1.bias f4 [128]
00000000: abc6 e6bd ba5b 2e3e 7ecb e23e bbad a33d
00000010: 5c6d 1abd 975a b7bd 0502 cbbe 07c8 8c3e
00000020: 62bf e03c 8294 6fbd 2c99 ba3c 69d7 073e
00000030: 288d 343d dd76 9c3e 4fa9 4c3f 1997 8cbd
00000040: 9cad f6bd 9bc4 72be 7a1f 9dbd ef1a 443d
00000050: 2ec5 063e 9bca 133c 1067 083f 4a15 0dbe
00000060: dcff 0cbe b91c e9bd 332e 12bd 932f 01be
00000070: 35be e43e b1fc c4bc f59c a9be b42a 9ebe
00000080: f2d4 653e 2272 bf3d 5547 813d ea39 d43d
00000090: 1d30 303e b524 aabe 8422 ffbc 64f3 77bd
000000a0: c506 3dbe 8827 1fbe c176 2a3e f7f2 763e
000000b0: 140c 30be da5d 9f3e bd5f bc3c 4c03 c4bc
000000c0: 8266 e5bb f3b3 62bd e045 9e3e dccf 963d
000000d0: b319 9d3d 69a5 44be 6bcc 86bd f4f7 8f3d
000000e0: 8e68 ee3d 6ed0 ea3d 8f03 6c3d ca23 cbbe
000000f0: 682a 393d 56c7 14be 64db cdbe df63 843e
00000100: 5f50 c4bd 9699 5b3e e18c c23a 25ae b339
00000110: fd70 02be 35f5 d4bd 5393 0d3f 5365 063d
00000120: adcd 8cbd 1019 cd3e 2a90 033d d470 71be
00000130: 2c72 513e 19d1 cc3c 7e05 29be 9ee5 113e
00000140: 81db e7bd dec4 afbd 30b7 613e f76e b63d
00000150: 4a77 09be d03b 78bd 42bb 2dbe 535d e8be
00000160: 6c13 e23e e2de 8ebd 6251 b5bd 85b0 a43c
00000170: 5301 c23d ad1b 97bd ca8c 16be 37f5 25be
00000180: 4fd8 0a3e 6bdd 24be 2c63 8dbe 65a0 4fbd
00000190: 6c5a a6be fd11 9bbd 00ca e7bd 7836 aebe
000001a0: 7c3b b93d 265d 36be 2a83 03bf 7781 913e
000001b0: 523e cbbc b8eb a6bd 8594 413c 066f 153e
000001c0: 8990 33be 6666 88bd 30e7 02be 88b0 80be
000001d0: a250 c23c 20b0 2dbe e50a 013e 9c20 2abe
000001e0: e954 893e f550 b3be 1325 d83d 98b8 073e
000001f0: 595a c7bd 447c 903e e52f 0bbe 1b17 99bc
-0.11268362 0.17027178 0.44295877 0.07992121 -0.03770195 -0.089528255 -0.39649978 0.2749636
0.027435008 -0.058491237 0.022778116 0.13265766 0.04407993 0.30559435 0.79945844 -0.06864757
-0.12044832 -0.23707812 -0.07672019 0.04787725 0.13161156 0.009020473 0.5328226 -0.13777652
-0.13769478 -0.113824315 -0.03568859 -0.12615804 0.44676366 -0.024046274 -0.3312756 -0.30891955
0.22444513 0.09347941 0.06312434 0.10362609 0.17205854 -0.3323113 -0.031144388 -0.06053485
-0.18459614 -0.15542424 0.16646864 0.24116121 -0.17192107 0.3112629 0.02299487 -0.023927353
-0.0070007453 -0.055347394 0.30912685 0.07363865 0.07670917 -0.19203724 -0.065819584 0.07029715
0.11641036 0.11465536 0.05762058 -0.39675742 0.045206457 -0.14529166 -0.40206444 0.25857446
-0.09585642 0.21445307 0.001484301 0.00034271288 -0.12738414 -0.10398332 0.55302924 0.032811474
-0.06875167 0.40058184 0.032119907 -0.23578197 0.2045371 0.02500205 -0.16506001 0.14247748
-0.11321164 -0.08582471 0.22042537 0.089078836 -0.13424411 -0.060603917 -0.16965964 -0.453837
0.44155443 -0.06976105 -0.08853413 0.020103702 0.09472909 -0.073783256 -0.14702144 -0.16206823
0.13559078 -0.16100089 -0.27614725 -0.050690074 -0.3249086 -0.0757179 -0.11317825 -0.3402593
0.09044549 -0.17808971 -0.51372015 0.28419086 -0.02480999 -0.081504285 0.011815195 0.14593133
-0.17535605 -0.06660156 -0.12783504 -0.25134683 0.02372009 -0.16961718 0.12601812 -0.16614002
0.26822594 -0.35022703 0.10553946 0.1325401 -0.09734029 0.28219807 -0.13592489 -0.018687775

layer_2.weight f4 [1, 128]
00000000: 4077 0abe 3d1c 15bf 03fe 7840 d552 eabe
00000010: 105a 6c3f f72d 00c0 9758 06c0 9da4 cf3e
00000020: 40ab b5bd 97d2 8b3f 6e5f c23f 6138 96bf
00000030: f715 3bbf d961 c73f a2db 81c0 f4d8 ec3e
00000040: edcb 11c0 68e6 6dbf c226 ce3e ef1f 58bf
00000050: ade0 1bc0 f901 823e 49ac fa3f 7e2a 3bbf
00000060: fd60 4ebf 1cab 2740 b9ab 03bf 7b68 be3f
00000070: 96b2 dbbf b6c6 f33e 7b65 a4bf 2cc0 5fc0
00000080: 7531 f5be b32d b13f 4f7a 5940 8004 12bf
00000090: a4d3 cf3f f90a 15c0 2fa7 dbbf 912a 88c0
000000a0: 2d39 0ebf 8d1f 2dbf 543b 6b3f 99e8 4840
000000b0: a34d 903f 90f3 0440 6bef 11be f9d5 6bc0
000000c0: 4cd6 7e3f 59e6 05bf 7da1 9fbf 01ee 983f
000000d0: aac2 87bf b340 15bd 5d24 d6be 6103 493f
000000e0: 74f7 9bbf a405 e33f 0925 0140 892b 8ebf
000000f0: 7318 d03e fb20 063e 6f72 2f40 da1f 9c40
00000100: 1d98 923e 791d c6be 09ca fc3e 2b7f 04c0
00000110: f9f9 2e40 70bd 5b3f ed1c 1ac0 a76e c23e
00000120: f643 1fc0 f200 623f 9589 56c0 53c1 1e40
00000130: 67ff a5bf 5dbd 4a3d 519c 88bf 44f2 b5bf
00000140: 4038 31bf 7051 91bf 5812 06c0 2639 cb3f
00000150: 713e 16be 2394 df3f cbec 913c d941 2140
00000160: 7d63 76c0 5f72 5ebf 545c c0be 5f2b 1a3e
00000170: a079 67bf 82c6 26bf dad8 9b3f 547e af3e
00000180: cd3e 813f d712 763f bd96 3ec0 89b6 85bd
00000190: da64 97bf 4334 b2bd a880 02bf e8fc d43f
000001a0: 3701 523f 6cde 393e 00b2 0440 ca69 a240
000001b0: 63ec 4340 bd4d 8b3e 2401 16bf e79c f9be
000001c0: 3630 563d c54a e5be 05d5 0e3e 0448 7ac0
000001d0: e901 9c3f 2638 0d3e fcf3 c83f 2cd9 62be
000001e0: 118b 16bf 9fd1 5440 cfdf 483f e17b fcbe
000001f0: e4dc 24bf 94f5 3ec0 6493 883e 098c 92bf
-0.13522053 -0.58246213 3.8905036 -0.4576632 0.92324924 -2.0028055 -2.099157 0.40555277
-0.08870554 1.0923642 1.5185373 -1.1735955 -0.7308039 1.5576736 -4.0580606 0.46259272
-2.2780716 -0.929297 0.40263945 -0.84423727 -2.4355881 0.2539213 1.9583827 -0.7311171
-0.8061674 2.6198187 -0.514339 1.4875635 -1.7163875 0.47612542 -1.2843469 -3.4961042
-0.47889295 1.3842071 3.3980901 -0.57038116 1.6236463 -2.3287947 -1.7160395 -4.255196
-0.55555993 -0.6762627 0.918874 3.1391966 1.1273693 2.0773659 -0.14251487 -3.6849349
0.9954574 -0.5230461 -1.2471157 1.1947633 -1.0606282 -0.036438655 -0.41824618 0.7852078
-1.2184892 1.7736096 2.0178854 -1.1107036 0.40643653 0.13098519 2.7413595 4.878888
0.28631678 -0.3869436 0.4937289 -2.0702617 2.7340071 0.85835934 -2.4080155 0.37975046
-2.488523 0.8828269 -3.3521473 2.4805496 -1.2968568 0.049496997 -1.0672704 -1.4214559
-0.69226456 -1.1352978 -2.0948696 1.5876815 -0.14672257 1.7467083 0.017813107 2.519644
-3.8498223 -0.86893266 -0.3757044 0.15055607 -0.9041996 -0.6514665 1.2175553 0.34276068
1.009729 0.961225 -2.9779503 -0.065289564 -1.1827652 -0.087013744 -0.50977564 1.6639681
0.82033104 0.18151253 2.0733643 5.0754137 3.061303 0.27207747 -0.5859549 -0.4875252
0.05229207 -0.44783607 0.13948448 -3.9106455 1.2188083 0.1379095 1.5699458 -0.22153157
-0.5880595 3.3252943 0.78466505 -0.49313262 -0.6439955 -2.983739 0.2667495 -1.1448985
